OPTIMIZER
Adam (
Parameter Group 0
    amsgrad: False
    betas: (0.9, 0.999)
    eps: 1e-08
    lr: 0.001
    weight_decay: 0
)
MODEL
cifar_CNN_prunned(
  (features): Sequential(
    (0): Conv2d(3, 45, kernel_size=(3, 3), stride=(1, 1), padding=(1, 1), bias=False)
    (1): ReLU()
    (2): Conv2d(45, 23, kernel_size=(3, 3), stride=(1, 1), padding=(1, 1), bias=False)
    (3): ReLU()
    (4): MaxPool2d(kernel_size=2, stride=2, padding=0, dilation=1, ceil_mode=False)
    (5): Conv2d(23, 49, kernel_size=(3, 3), stride=(1, 1), padding=(1, 1), bias=False)
    (6): ReLU()
    (7): Conv2d(49, 47, kernel_size=(3, 3), stride=(1, 1), padding=(1, 1), bias=False)
    (8): ReLU()
    (9): MaxPool2d(kernel_size=2, stride=2, padding=0, dilation=1, ceil_mode=False)
  )
  (avgpool): AdaptiveAvgPool2d(output_size=(6, 6))
  (classifier): Sequential(
    (0): Dropout(p=0.5, inplace=False)
    (1): Linear(in_features=1692, out_features=1000, bias=True)
    (2): ReLU()
    (3): Dropout(p=0.5, inplace=False)
    (4): Linear(in_features=1000, out_features=500, bias=True)
    (5): ReLU()
    (6): Linear(in_features=500, out_features=10, bias=True)
  )
)
OPTIMIZER
Adam (
Parameter Group 0
    amsgrad: False
    betas: (0.9, 0.999)
    eps: 1e-08
    lr: 0.001
    weight_decay: 0
)
MODEL
cifar_CNN_prunned(
  (features): Sequential(
    (0): Conv2d(3, 45, kernel_size=(3, 3), stride=(1, 1), padding=(1, 1), bias=False)
    (1): ReLU()
    (2): Conv2d(45, 23, kernel_size=(3, 3), stride=(1, 1), padding=(1, 1), bias=False)
    (3): ReLU()
    (4): MaxPool2d(kernel_size=2, stride=2, padding=0, dilation=1, ceil_mode=False)
    (5): Conv2d(23, 49, kernel_size=(3, 3), stride=(1, 1), padding=(1, 1), bias=False)
    (6): ReLU()
    (7): Conv2d(49, 47, kernel_size=(3, 3), stride=(1, 1), padding=(1, 1), bias=False)
    (8): ReLU()
    (9): MaxPool2d(kernel_size=2, stride=2, padding=0, dilation=1, ceil_mode=False)
  )
  (avgpool): AdaptiveAvgPool2d(output_size=(6, 6))
  (classifier): Sequential(
    (0): Dropout(p=0.5, inplace=False)
    (1): Linear(in_features=1692, out_features=1000, bias=True)
    (2): ReLU()
    (3): Dropout(p=0.5, inplace=False)
    (4): Linear(in_features=1000, out_features=500, bias=True)
    (5): ReLU()
    (6): Linear(in_features=500, out_features=10, bias=True)
  )
)
Train Epoch: 1 [0/50000 (0%)]	Loss: 2.307094
Train Epoch: 1 [12000/50000 (24%)]	Loss: 1.818316
Train Epoch: 1 [24000/50000 (48%)]	Loss: 1.601699
Train Epoch: 1 [36000/50000 (72%)]	Loss: 1.476464
Train Epoch: 1 [48000/50000 (96%)]	Loss: 1.365767
epoch: 1

Test set: Average loss: 0.0046, Accuracy: 5142/10000 (51.42%)

class    total     guessed    accuracy    f1-score
…
