OPTIMIZER
Adam (
Parameter Group 0
    amsgrad: False
    betas: (0.9, 0.999)
    eps: 1e-08
    lr: 0.001
    weight_decay: 0
)
MODEL
MNIST_edges(
  (conv1): Conv2d(1, 6, kernel_size=(3, 3), stride=(1, 1))
  (conv2): Conv2d(6, 8, kernel_size=(3, 3), stride=(1, 1))
  (conv3): Conv2d(8, 10, kernel_size=(3, 3), stride=(1, 1))
  (fc1): Linear(in_features=7840, out_features=500, bias=True)
  (fc2): Linear(in_features=500, out_features=10, bias=True)
)
OPTIMIZER
Adam (
Parameter Group 0
    amsgrad: False
    betas: (0.9, 0.999)
    eps: 1e-08
    lr: 0.001
    weight_decay: 0
)
MODEL
MNIST_edges(
  (conv1): Conv2d(1, 6, kernel_size=(3, 3), stride=(1, 1))
  (conv2): Conv2d(6, 8, kernel_size=(3, 3), stride=(1, 1))
  (conv3): Conv2d(8, 10, kernel_size=(3, 3), stride=(1, 1))
  (fc1): Linear(in_features=7840, out_features=500, bias=True)
  (fc2): Linear(in_features=500, out_features=10, bias=True)
)
OPTIMIZER
Adam (
Parameter Group 0
    amsgrad: False
    betas: (0.9, 0.999)
    eps: 1e-08
    lr: 0.001
    weight_decay: 0
)
MODEL
MNIST_edges(
  (conv1): Conv2d(1, 6, kernel_size=(3, 3), stride=(1, 1))
  (conv2): Conv2d(6, 8, kernel_size=(3, 3), stride=(1, 1))
  (conv3): Conv2d(8, 10, kernel_size=(3, 3), stride=(1, 1))
  (fc1): Linear(in_features=7840, out_features=500, bias=True)
  (fc2): Linear(in_features=500, out_features=10, bias=True)
)
OPTIMIZER
Adam (
Parameter Group 0
    amsgrad: False
    betas: (0.9, 0.999)
    eps: 1e-08
    lr: 0.001
    weight_decay: 0
)
MODEL
MNIST_edges(
  (conv1): Conv2d(1, 6, kernel_size=(3, 3), stride=(1, 1))
  (conv2): Conv2d(6, 8, kernel_size=(3, 3), stride=(1, 1))
  (conv3): Conv2d(8, 10, kernel_size=(3, 3), stride=(1, 1))
  (fc1): Linear(in_features=7840, out_features=500, bias=True)
  (fc2): Linear(in_features=500, out_features=10, bias=True)
)
OPTIMIZER
Adam (
Parameter Group 0
    amsgrad: False
    betas: (0.9, 0.999)
    eps: 1e-08
    lr: 0.001
    weight_decay: 0
)
MODEL
MNIST_edges(
  (conv1): Conv2d(1, 6, kernel_size=(3, 3), stride=(1, 1), padding=(1, 1))
  (conv2): Conv2d(6, 8, kernel_size=(3, 3), stride=(1, 1), padding=(1, 1))
  (conv3): Conv2d(8, 10, kernel_size=(3, 3), stride=(1, 1), padding=(1, 1))
  (fc1): Linear(in_features=7840, out_features=500, bias=True)
  (fc2): Linear(in_features=500, out_features=10, bias=True)
)
OPTIMIZER
Adam (
Parameter Group 0
    amsgrad: False
    betas: (0.9, 0.999)
    eps: 1e-08
    lr: 0.001
    weight_decay: 0
)
MODEL
MNIST_edges(
  (conv1): Conv2d(1, 6, kernel_size=(3, 3), stride=(1, 1), padding=(1, 1))
  (conv2): Conv2d(6, 8, kernel_size=(3, 3), stride=(1, 1), padding=(1, 1))
  (conv3): Conv2d(8, 10, kernel_size=(3, 3), stride=(1, 1), padding=(1, 1))
  (fc1): Linear(in_features=7840, out_features=500, bias=True)
  (fc2): Linear(in_features=500, out_features=10, bias=True)
)
OPTIMIZER
Adam (
Parameter Group 0
    amsgrad: False
    betas: (0.9, 0.999)
    eps: 1e-08
    lr: 0.001
    weight_decay: 0
)
MODEL
MNIST_edges(
  (conv1): Conv2d(1, 6, kernel_size=(3, 3), stride=(1, 1), padding=(1, 1))
  (conv2): Conv2d(6, 8, kernel_size=(3, 3), stride=(1, 1), padding=(1, 1))
  (conv3): Conv2d(8, 10, kernel_size=(3, 3), stride=(1, 1), padding=(1, 1))
  (fc1): Linear(in_features=7840, out_features=500, bias=True)
  (fc2): Linear(in_features=500, out_features=10, bias=True)
)
OPTIMIZER
Adam (
Parameter Group 0
    amsgrad: False
    betas: (0.9, 0.999)
    eps: 1e-08
    lr: 0.001
    weight_decay: 0
)
MODEL
MNIST_edges(
  (conv1): Conv2d(1, 6, kernel_size=(3, 3), stride=(1, 1), padding=(1, 1))
  (conv2): Conv2d(6, 8, kernel_size=(3, 3), stride=(1, 1), padding=(1, 1))
  (conv3): Conv2d(8, 10, kernel_size=(3, 3), stride=(1, 1), padding=(1, 1))
  (fc1): Linear(in_features=7840, out_features=500, bias=True)
  (fc2): Linear(in_features=500, out_features=10, bias=True)
)
Train Epoch: 1 [0/60000 (0%)]	Loss: 2.305299
Train Epoch: 1 [500/60000 (1%)]	Loss: 2.309893
Train Epoch: 1 [1000/60000 (2%)]	Loss: 2.238894
Train Epoch: 1 [1500/60000 (2%)]	Loss: 2.148144
Train Epoch: 1 [2000/60000 (3%)]	Loss: 1.948965
Train Epoch: 1 [2500/60000 (4%)]	Loss: 1.662035
Train Epoch: 1 [3000/60000 (5%)]	Loss: 1.248541
Train Epoch: 1 [3500/60000 (6%)]	Loss: 0.948985
…
Train Epoch: 1 [21000/60000 (35%)]	Loss: 0.281211
Train Epoch: 1 [21500/60000 (36%)]	Loss: 0.248793
Train Epoch: 1 [22000/60000 (37%)]	Loss: 0.218893
Train Epoch: 1 [22500/60000 (38%)]	Loss: 0.152200
Train Epoch: 1 [23000/60000 (38%)]	Loss: 0.232882
Train Epoch: 1 [23500/60000 (39%)]	Loss: 0.180119
Train Epoch: 1 [24000/60000 (40%)]	Loss: 0.266725
Train Epoch: 1 [24500/60000 (41%)]	Loss: 0.395379
Train Epoch: 1 [25000/60000 (42%)]	Loss: 0.151798
OPTIMIZER
Adam (
Parameter Group 0
    amsgrad: False
    betas: (0.9, 0.999)
    eps: 1e-08
    lr: 0.001
    weight_decay: 0
)
MODEL
MNIST_edges(
  (conv1): Conv2d(1, 6, kernel_size=(3, 3), stride=(1, 1), padding=(1, 1))
  (conv2): Conv2d(6, 8, kernel_size=(3, 3), stride=(1, 1), padding=(1, 1))
  (conv3): Conv2d(8, 10, kernel_size=(3, 3), stride=(1, 1), padding=(1, 1))
  (fc1): Linear(in_features=7840, out_features=500, bias=True)
  (fc2): Linear(in_features=500, out_features=10, bias=True)
)
Train Epoch: 1 [0/60000 (0%)]	Loss: 2.305299
Train Epoch: 1 [500/60000 (1%)]	Loss: 2.309893
Train Epoch: 1 [1000/60000 (2%)]	Loss: 2.238893
Train Epoch: 1 [1500/60000 (2%)]	Loss: 2.148144
Train Epoch: 1 [2000/60000 (3%)]	Loss: 1.948966
Train Epoch: 1 [2500/60000 (4%)]	Loss: 1.662035
Train Epoch: 1 [3000/60000 (5%)]	Loss: 1.248541
Train Epoch: 1 [3500/60000 (6%)]	Loss: 0.948985
…
