OPTIMIZER
Adam (
Parameter Group 0
    amsgrad: False
    betas: (0.9, 0.999)
    eps: 1e-08
    lr: 0.0001
    weight_decay: 0
)
MODEL
MNIST_edges(
  (conv1): Conv2d(1, 6, kernel_size=(3, 3), stride=(1, 1), padding=(1, 1))
  (conv2): Conv2d(6, 8, kernel_size=(3, 3), stride=(1, 1), padding=(1, 1))
  (conv3): Conv2d(8, 10, kernel_size=(3, 3), stride=(1, 1), padding=(1, 1))
  (fc1): Linear(in_features=7840, out_features=500, bias=True)
  (fc2): Linear(in_features=500, out_features=10, bias=True)
)
Train Epoch: 1 [0/60000 (0%)]	Loss: 0.000001
Train Epoch: 1 [500/60000 (1%)]	Loss: 0.000000
Train Epoch: 1 [1000/60000 (2%)]	Loss: 0.000001
Train Epoch: 1 [1500/60000 (2%)]	Loss: 0.000000
Train Epoch: 1 [2000/60000 (3%)]	Loss: 0.000000
Train Epoch: 1 [2500/60000 (4%)]	Loss: 0.000001
Train Epoch: 1 [3000/60000 (5%)]	Loss: 0.000000
Train Epoch: 1 [3500/60000 (6%)]	Loss: 0.000000
…
2        1032         1031        0.986         0.986
3        1010         1007        0.986         0.987
4        982         962        0.975         0.985
5        892         891        0.988         0.989
6        958         962        0.992         0.99
7        1028         1045        0.992         0.984
8        974         980        0.988         0.985
9        1009         1002        0.974         0.977


Total Run Time:
--- 23.29691243171692 seconds ---
OPTIMIZER
Adam (
Parameter Group 0
    amsgrad: False
    betas: (0.9, 0.999)
    eps: 1e-08
    lr: 0.0001
    weight_decay: 0
)
MODEL
MNIST_edges(
  (conv1): Conv2d(1, 6, kernel_size=(3, 3), stride=(1, 1), padding=(1, 1))
  (conv2): Conv2d(6, 10, kernel_size=(3, 3), stride=(1, 1), padding=(1, 1))
  (conv3): Conv2d(10, 14, kernel_size=(3, 3), stride=(1, 1), padding=(1, 1))
  (fc1): Linear(in_features=10976, out_features=500, bias=True)
  (fc2): Linear(in_features=500, out_features=10, bias=True)
)
Train Epoch: 1 [0/60000 (0%)]	Loss: 2.303503
Train Epoch: 1 [1000/60000 (2%)]	Loss: 2.296165
Train Epoch: 1 [2000/60000 (3%)]	Loss: 2.282473
Train Epoch: 1 [3000/60000 (5%)]	Loss: 2.274782
Train Epoch: 1 [4000/60000 (7%)]	Loss: 2.252890
Train Epoch: 1 [5000/60000 (8%)]	Loss: 2.231277
Train Epoch: 1 [6000/60000 (10%)]	Loss: 2.222139
Train Epoch: 1 [7000/60000 (12%)]	Loss: 2.184210
…
