OPTIMIZER
Adam (
Parameter Group 0
    amsgrad: False
    betas: (0.9, 0.999)
    eps: 1e-08
    lr: 0.001
    weight_decay: 0
)
MODEL
MNIST_edges(
  (conv1): Conv2d(1, 6, kernel_size=(3, 3), stride=(1, 1), padding=(1, 1))
  (conv2): Conv2d(6, 10, kernel_size=(3, 3), stride=(1, 1), padding=(1, 1))
  (conv3): Conv2d(8, 14, kernel_size=(3, 3), stride=(1, 1), padding=(1, 1))
  (fc1): Linear(in_features=7840, out_features=500, bias=True)
  (fc2): Linear(in_features=500, out_features=10, bias=True)
)
OPTIMIZER
Adam (
Parameter Group 0
    amsgrad: False
    betas: (0.9, 0.999)
    eps: 1e-08
    lr: 0.001
    weight_decay: 0
)
MODEL
MNIST_edges(
  (conv1): Conv2d(1, 6, kernel_size=(3, 3), stride=(1, 1), padding=(1, 1))
  (conv2): Conv2d(6, 10, kernel_size=(3, 3), stride=(1, 1), padding=(1, 1))
  (conv3): Conv2d(10, 14, kernel_size=(3, 3), stride=(1, 1), padding=(1, 1))
  (fc1): Linear(in_features=10976, out_features=500, bias=True)
  (fc2): Linear(in_features=500, out_features=10, bias=True)
)
OPTIMIZER
Adam (
Parameter Group 0
    amsgrad: False
    betas: (0.9, 0.999)
    eps: 1e-08
    lr: 0.001
    weight_decay: 0
)
MODEL
MNIST_edges(
  (conv1): Conv2d(1, 6, kernel_size=(3, 3), stride=(1, 1), padding=(1, 1))
  (conv2): Conv2d(6, 10, kernel_size=(3, 3), stride=(1, 1), padding=(1, 1))
  (conv3): Conv2d(10, 14, kernel_size=(3, 3), stride=(1, 1), padding=(1, 1))
  (fc1): Linear(in_features=10976, out_features=500, bias=True)
  (fc2): Linear(in_features=500, out_features=10, bias=True)
)
Train Epoch: 1 [0/60000 (0%)]	Loss: 2.305578
Train Epoch: 1 [500/60000 (1%)]	Loss: 2.289996
Train Epoch: 1 [1000/60000 (2%)]	Loss: 2.129579
Train Epoch: 1 [1500/60000 (2%)]	Loss: 1.752432
Train Epoch: 1 [2000/60000 (3%)]	Loss: 1.339057
Train Epoch: 1 [2500/60000 (4%)]	Loss: 0.851709
Train Epoch: 1 [3000/60000 (5%)]	Loss: 0.567500
Train Epoch: 1 [3500/60000 (6%)]	Loss: 0.701179
…
2        1032         1041        0.99         0.986
3        1010         1024        0.995         0.988
4        982         989        0.992         0.988
5        892         883        0.982         0.987
6        958         946        0.985         0.991
7        1028         1051        0.993         0.982
8        974         962        0.977         0.983
9        1009         969        0.954         0.973


Total Run Time:
--- 23.070887088775635 seconds ---
OPTIMIZER
Adam (
Parameter Group 0
    amsgrad: False
    betas: (0.9, 0.999)
    eps: 1e-08
    lr: 0.001
    weight_decay: 0
)
MODEL
MNIST_edges(
  (conv1): Conv2d(1, 6, kernel_size=(3, 3), stride=(1, 1), padding=(1, 1))
  (conv2): Conv2d(6, 10, kernel_size=(3, 3), stride=(1, 1), padding=(1, 1))
  (conv3): Conv2d(10, 14, kernel_size=(3, 3), stride=(1, 1), padding=(1, 1))
  (fc1): Linear(in_features=10976, out_features=500, bias=True)
  (fc2): Linear(in_features=500, out_features=10, bias=True)
)
Train Epoch: 1 [0/60000 (0%)]	Loss: 2.303503
Train Epoch: 1 [1000/60000 (2%)]	Loss: 2.240787
Train Epoch: 1 [2000/60000 (3%)]	Loss: 2.089022
Train Epoch: 1 [3000/60000 (5%)]	Loss: 1.776552
Train Epoch: 1 [4000/60000 (7%)]	Loss: 1.255195
Train Epoch: 1 [5000/60000 (8%)]	Loss: 0.788433
Train Epoch: 1 [6000/60000 (10%)]	Loss: 0.668230
Train Epoch: 1 [7000/60000 (12%)]	Loss: 0.552833
…
